…
*********************************************** CNN TRAINING *******************************************

Model: "model"
__________________________________________________________________________________________________
Layer (type)                    Output Shape         Param #     Connected to                     
==================================================================================================
input_1 (InputLayer)            [(None, 905)]        0                                            
__________________________________________________________________________________________________
embedding (Embedding)           (None, 905, 300)     5405100     input_1[0][0]                    
__________________________________________________________________________________________________
reshape (Reshape)               (None, 905, 300, 1)  0           embedding[0][0]                  
__________________________________________________________________________________________________
conv2d (Conv2D)                 (None, 905, 1, 256)  77056       reshape[0][0]                    
__________________________________________________________________________________________________
conv2d_1 (Conv2D)               (None, 904, 1, 256)  153856      reshape[0][0]                    
__________________________________________________________________________________________________
conv2d_2 (Conv2D)               (None, 903, 1, 256)  230656      reshape[0][0]                    
__________________________________________________________________________________________________
conv2d_3 (Conv2D)               (None, 902, 1, 256)  307456      reshape[0][0]                    
__________________________________________________________________________________________________
conv2d_4 (Conv2D)               (None, 901, 1, 256)  384256      reshape[0][0]                    
__________________________________________________________________________________________________
conv2d_5 (Conv2D)               (None, 900, 1, 256)  461056      reshape[0][0]                    
__________________________________________________________________________________________________
max_pooling2d (MaxPooling2D)    (None, 1, 1, 256)    0           conv2d[0][0]                     
__________________________________________________________________________________________________
max_pooling2d_1 (MaxPooling2D)  (None, 1, 1, 256)    0           conv2d_1[0][0]                   
__________________________________________________________________________________________________
max_pooling2d_2 (MaxPooling2D)  (None, 1, 1, 256)    0           conv2d_2[0][0]                   
__________________________________________________________________________________________________
max_pooling2d_3 (MaxPooling2D)  (None, 1, 1, 256)    0           conv2d_3[0][0]                   
__________________________________________________________________________________________________
max_pooling2d_4 (MaxPooling2D)  (None, 1, 1, 256)    0           conv2d_4[0][0]                   
__________________________________________________________________________________________________
max_pooling2d_5 (MaxPooling2D)  (None, 1, 1, 256)    0           conv2d_5[0][0]                   
__________________________________________________________________________________________________
concatenate (Concatenate)       (None, 1, 1, 1536)   0           max_pooling2d[0][0]              
                                                                 max_pooling2d_1[0][0]            
                                                                 max_pooling2d_2[0][0]            
                                                                 max_pooling2d_3[0][0]            
                                                                 max_pooling2d_4[0][0]            
                                                                 max_pooling2d_5[0][0]            
__________________________________________________________________________________________________
flatten (Flatten)               (None, 1536)         0           concatenate[0][0]                
__________________________________________________________________________________________________
dense (Dense)                   (None, 64)           98368       flatten[0][0]                    
__________________________________________________________________________________________________
dense_1 (Dense)                 (None, 64)           4160        dense[0][0]                      
__________________________________________________________________________________________________
dense_2 (Dense)                 (None, 64)           4160        dense_1[0][0]                    
__________________________________________________________________________________________________
dense_3 (Dense)                 (None, 64)           4160        dense_2[0][0]                    
__________________________________________________________________________________________________
dense_4 (Dense)                 (None, 1)            65          dense_3[0][0]                    
==================================================================================================
Total params: 7,130,349
Trainable params: 7,130,349
Non-trainable params: 0
__________________________________________________________________________________________________
None
Epoch 1/100
  1/826 [..............................] - ETA: 0s - loss: 3.998
…
